…
I0523 22:19:21.747789  4104 net.cpp:296] The NetState phase (0) differed from the phase (1) specified by a rule in layer accuracy_DL_PROJECT
I0523 22:19:21.748025  4104 net.cpp:53] Initializing net from parameters: 
name: "CaffeNet"
state {
  phase: TRAIN
  level: 0
  stage: ""
}
layer {
  name: "data"
  type: "Data"
  top: "data"
  top: "label"
  include {
    phase: TRAIN
  }
  transform_param {
    mirror: true
    crop_size: 227
    mean_file: "/home/pussycat/finetune_caffe_model/data/dataset_info/imagenet_mean.binaryproto"
  }
  data_param {
    source: "/home/pussycat/finetune_caffe_model/data/mdb_files/train_lmdb"
    batch_size: 50
    backend: LMDB
  }
}
layer {
  name: "conv1"
  type: "Convolution"
  bottom: "data"
  top: "conv1"
  param {
    lr_mult: 1
    decay_mult: 1
  }
  param {
    lr_mult: 2
    decay_mult: 0
  }
  convolution_param {
    num_output: 96
    kernel_size: 11
    stride: 4
    weight_filler {
      type: "gaussian"
      std: 0.01
    }
    bias_filler {
      type: "constant"
      value: 0
    }
  }
}
layer {
  name: "relu1"
  type: "ReLU"
  bottom: "conv1"
  top: "conv1"
}
layer {
  name: "pool1"
  type: "Pooling"
  bottom: "conv1"
  top: "pool1"
  pooling_param {
    pool: MAX
    kernel_size: 3
    stride: 2
  }
}
layer {
  name: "norm1"
  type: "LRN"
  bottom: "pool1"
  top: "norm1"
  lrn_param {
    local_size: 5
    alpha: 0.0001
    beta: 0.75
  }
}
layer {
  name: "conv2"
  type: "Convolution"
  bottom: "norm1"
  top: "conv2"
  param {
    lr_mult: 1
    decay_mult: 1
  }
  param {
    lr_mult: 2
    decay_mult: 0
  }
  convolution_param {
    num_output: 256
    pad: 2
    kernel_size: 5
    group: 2
    weight_filler {
      type: "gaussian"
      std: 0.01
    }
    bias_filler {
      type: "constant"
      value: 1
    }
  }
}
layer {
  name: "relu2"
  type: "ReLU"
  bottom: "conv2"
  top: "conv2"
}
layer {
  name: "pool2"
  type: "Pooling"
  bottom: "conv2"
  top: "pool2"
  pooling_param {
    pool: MAX
    kernel_size: 3
    stride: 2
  }
}
layer {
  name: "norm2"
  type: "LRN"
  bottom: "pool2"
  top: "norm2"
  lrn_param {
    local_size: 5
    alpha: 0.0001
    beta: 0.75
  }
}
layer {
  name: "conv3"
  type: "Convolution"
  bottom: "norm2"
  top: "conv3"
  param {
    lr_mult: 1
    decay_mult: 1
  }
  param {
    lr_mult: 2
    decay_mult: 0
  }
  convolution_param {
    num_output: 384
    pad: 1
    kernel_size: 3
    weight_filler {
      type: "gaussian"
      std: 0.01
    }
    bias_filler {
      type: "constant"
      value: 0
    }
  }
}
layer {
  name: "relu3"
  type: "ReLU"
  bottom: "conv3"
  top: "conv3"
}
layer {
  name: "conv4"
  type: "Convolution"
  bottom: "conv3"
  top: "conv4"
  param {
    lr_mult: 1
    decay_mult: 1
  }
  param {
    lr_mult: 2
    decay_mult: 0
  }
  convolution_param {
    num_output: 384
    pad: 1
    kernel_size: 3
    group: 2
    weight_filler {
      type: "gaussian"
      std: 0.01
    }
    bias_filler {
      type: "constant"
      value: 1
    }
  }
}
layer {
  name: "relu4"
  type: "ReLU"
  bottom: "conv4"
  top: "conv4"
}
layer {
  name: "conv5"
  type: "Convolution"
  bottom: "conv4"
  top: "conv5"
  param {
    lr_mult: 1
    decay_mult: 1
  }
  param {
    lr_mult: 2
    decay_mult: 0
  }
  convolution_param {
    num_output: 256
    pad: 1
    kernel_size: 3
    group: 2
    weight_filler {
      type: "gaussian"
      std: 0.01
    }
    bias_filler {
      type: "constant"
      value: 1
    }
  }
}
layer {
  name: "relu5"
  type: "ReLU"
  bottom: "conv5"
  top: "conv5"
}
layer {
  name: "pool5"
  type: "Pooling"
  bottom: "conv5"
  top: "pool5"
  pooling_param {
    pool: MAX
    kernel_size: 3
    stride: 2
  }
}
layer {
  name: "fc6"
  type: "InnerProduct"
  bottom: "pool5"
  top: "fc6"
  param {
    lr_mult: 1
    decay_mult: 1
  }
  param {
    lr_mult: 2
    decay_mult: 0
  }
  inner_product_param {
    num_output: 4096
    weight_filler {
      type: "gaussian"
      std: 0.005
    }
    bias_filler {
      type: "constant"
      value: 1
    }
  }
}
layer {
  name: "relu6"
  type: "ReLU"
  bottom: "fc6"
  top: "fc6"
}
layer {
  name: "drop6"
  type: "Dropout"
  bottom: "fc6"
  top: "fc6"
  dropout_param {
    dropout_ratio: 0.5
  }
}
layer {
  name: "fc7"
  type: "InnerProduct"
  bottom: "fc6"
  top: "fc7"
  param {
    lr_mult: 1
    decay_mult: 1
  }
  param {
    lr_mult: 2
    decay_mult: 0
  }
  inner_product_param {
    num_output: 4096
    weight_filler {
      type: "gaussian"
      std: 0.005
    }
    bias_filler {
      type: "constant"
      value: 1
    }
  }
}
layer {
  name: "relu7"
  type: "ReLU"
  bottom: "fc7"
  top: "fc7"
}
layer {
  name: "drop7"
  type: "Dropout"
  bottom: "fc7"
  top: "fc7"
  dropout_param {
    dropout_ratio: 0.5
  }
}
layer {
  name: "fc8_DL_PROJECT"
  type: "InnerProduct"
  bottom: "fc7"
  top: "fc8_DL_PROJECT"
  param {
    lr_mult: 1
    decay_mult: 1
  }
  param {
    lr_mult: 2
    decay_mult: 0
  }
  inner_product_param {
    num_output: 5
    weight_filler {
      type: "gaussian"
      std: 0.01
    }
    bias_filler {
      type: "constant"
      value: 0
    }
  }
}
layer {
  name: "loss_DL_PROJECT"
  type: "SoftmaxWithLoss"
  bottom: "fc8_DL_PROJECT"
  bottom: "label"
  top: "loss_DL_PROJECT"
}
I0523 22:19:21.750357  4104 layer_factory.hpp:77] Creating layer data
I0523 22:19:21.750596  4104 db_lmdb.cpp:35] Opened lmdb /home/pussycat/finetune_caffe_model/data/mdb_files/train_lmdb
I0523 22:19:21.750700  4104 net.cpp:86] Creating Layer data
I0523 22:19:21.750758  4104 net.cpp:382] data -> data
I0523 22:19:21.750836  4104 net.cpp:382] data -> label
I0523 22:19:21.750896  4104 data_transformer.cpp:25] Loading mean file from: /home/pussycat/finetune_caffe_model/data/dataset_info/imagenet_mean.binaryproto
I0523 22:19:21.754601  4104 data_layer.cpp:45] output data size: 50,3,227,227
I0523 22:19:21.855940  4104 net.cpp:124] Setting up data
I0523 22:19:21.856184  4104 net.cpp:131] Top shape: 50 3 227 227 (7729350)
I0523 22:19:21.856235  4104 net.cpp:131] Top shape: 50 (50)
I0523 22:19:21.856281  4104 net.cpp:139] Memory required for data: 30917600
I0523 22:19:21.856339  4104 layer_factory.hpp:77] Creating layer conv1
I0523 22:19:21.856498  4104 net.cpp:86] Creating Layer conv1
I0523 22:19:21.856547  4104 net.cpp:408] conv1 <- data
I0523 22:19:21.856652  4104 net.cpp:382] conv1 -> conv1
I0523 22:19:23.055131  4104 net.cpp:124] Setting up conv1
I0523 22:19:23.055392  4104 net.cpp:131] Top shape: 50 96 55 55 (14520000)
I0523 22:19:23.055462  4104 net.cpp:139] Memory required for data: 88997600
I0523 22:19:23.055582  4104 layer_factory.hpp:77] Creating layer relu1
I0523 22:19:23.055706  4104 net.cpp:86] Creating Layer relu1
I0523 22:19:23.055761  4104 net.cpp:408] relu1 <- conv1
I0523 22:19:23.055812  4104 net.cpp:369] relu1 -> conv1 (in-place)
I0523 22:19:23.056430  4104 net.cpp:124] Setting up relu1
I0523 22:19:23.056543  4104 net.cpp:131] Top shape: 50 96 55 55 (14520000)
I0523 22:19:23.056613  4104 net.cpp:139] Memory required for data: 147077600
I0523 22:19:23.056670  4104 layer_factory.hpp:77] Creating layer pool1
I0523 22:19:23.056730  4104 net.cpp:86] Creating Layer pool1
I0523 22:19:23.056802  4104 net.cpp:408] pool1 <- conv1
I0523 22:19:23.056859  4104 net.cpp:382] pool1 -> pool1
I0523 22:19:23.056977  4104 net.cpp:124] Setting up pool1
I0523 22:19:23.057058  4104 net.cpp:131] Top shape: 50 96 27 27 (3499200)
I0523 22:19:23.057102  4104 net.cpp:139] Memory required for data: 161074400
I0523 22:19:23.057147  4104 layer_factory.hpp:77] Creating layer norm1
I0523 22:19:23.057207  4104 net.cpp:86] Creating Layer norm1
I0523 22:19:23.057268  4104 net.cpp:408] norm1 <- pool1
I0523 22:19:23.057322  4104 net.cpp:382] norm1 -> norm1
I0523 22:19:23.057898  4104 net.cpp:124] Setting up norm1
I0523 22:19:23.058009  4104 net.cpp:131] Top shape: 50 96 27 27 (3499200)
I0523 22:19:23.058069  4104 net.cpp:139] Memory required for data: 175071200
I0523 22:19:23.058115  4104 layer_factory.hpp:77] Creating layer conv2
I0523 22:19:23.058187  4104 net.cpp:86] Creating Layer conv2
I0523 22:19:23.058249  4104 net.cpp:408] conv2 <- norm1
I0523 22:19:23.058306  4104 net.cpp:382] conv2 -> conv2
I0523 22:19:23.066740  4104 net.cpp:124] Setting up conv2
I0523 22:19:23.066854  4104 net.cpp:131] Top shape: 50 256 27 27 (9331200)
I0523 22:19:23.066906  4104 net.cpp:139] Memory required for data: 212396000
I0523 22:19:23.066963  4104 layer_factory.hpp:77] Creating layer relu2
I0523 22:19:23.067013  4104 net.cpp:86] Creating Layer relu2
I0523 22:19:23.067068  4104 net.cpp:408] relu2 <- conv2
I0523 22:19:23.067131  4104 net.cpp:369] relu2 -> conv2 (in-place)
I0523 22:19:23.067708  4104 net.cpp:124] Setting up relu2
I0523 22:19:23.067806  4104 net.cpp:131] Top shape: 50 256 27 27 (9331200)
I0523 22:19:23.067852  4104 net.cpp:139] Memory required for data: 249720800
I0523 22:19:23.067909  4104 layer_factory.hpp:77] Creating layer pool2
I0523 22:19:23.067965  4104 net.cpp:86] Creating Layer pool2
I0523 22:19:23.068027  4104 net.cpp:408] pool2 <- conv2
I0523 22:19:23.068089  4104 net.cpp:382] pool2 -> pool2
I0523 22:19:23.068197  4104 net.cpp:124] Setting up pool2
I0523 22:19:23.068262  4104 net.cpp:131] Top shape: 50 256 13 13 (2163200)
I0523 22:19:23.068312  4104 net.cpp:139] Memory required for data: 258373600
I0523 22:19:23.068379  4104 layer_factory.hpp:77] Creating layer norm2
I0523 22:19:23.068442  4104 net.cpp:86] Creating Layer norm2
I0523 22:19:23.068495  4104 net.cpp:408] norm2 <- pool2
I0523 22:19:23.068548  4104 net.cpp:382] norm2 -> norm2
I0523 22:19:23.069054  4104 net.cpp:124] Setting up norm2
I0523 22:19:23.069156  4104 net.cpp:131] Top shape: 50 256 13 13 (2163200)
I0523 22:19:23.069205  4104 net.cpp:139] Memory required for data: 267026400
I0523 22:19:23.069263  4104 layer_factory.hpp:77] Creating layer conv3
I0523 22:19:23.069339  4104 net.cpp:86] Creating Layer conv3
I0523 22:19:23.069393  4104 net.cpp:408] conv3 <- norm2
I0523 22:19:23.069448  4104 net.cpp:382] conv3 -> conv3
I0523 22:19:23.080631  4104 net.cpp:124] Setting up conv3
I0523 22:19:23.080737  4104 net.cpp:131] Top shape: 50 384 13 13 (3244800)
I0523 22:19:23.080785  4104 net.cpp:139] Memory required for data: 280005600
I0523 22:19:23.080839  4104 layer_factory.hpp:77] Creating layer relu3
I0523 22:19:23.080893  4104 net.cpp:86] Creating Layer relu3
I0523 22:19:23.080937  4104 net.cpp:408] relu3 <- conv3
I0523 22:19:23.080983  4104 net.cpp:369] relu3 -> conv3 (in-place)
I0523 22:19:23.081440  4104 net.cpp:124] Setting up relu3
I0523 22:19:23.081532  4104 net.cpp:131] Top shape: 50 384 13 13 (3244800)
I0523 22:19:23.081588  4104 net.cpp:139] Memory required for data: 292984800
I0523 22:19:23.081632  4104 layer_factory.hpp:77] Creating layer conv4
I0523 22:19:23.081696  4104 net.cpp:86] Creating Layer conv4
I0523 22:19:23.081748  4104 net.cpp:408] conv4 <- conv3
I0523 22:19:23.081815  4104 net.cpp:382] conv4 -> conv4
I0523 22:19:23.093830  4104 net.cpp:124] Setting up conv4
I0523 22:19:23.093936  4104 net.cpp:131] Top shape: 50 384 13 13 (3244800)
I0523 22:19:23.093992  4104 net.cpp:139] Memory required for data: 305964000
I0523 22:19:23.094048  4104 layer_factory.hpp:77] Creating layer relu4
I0523 22:19:23.094097  4104 net.cpp:86] Creating Layer relu4
I0523 22:19:23.094162  4104 net.cpp:408] relu4 <- conv4
I0523 22:19:23.094231  4104 net.cpp:369] relu4 -> conv4 (in-place)
I0523 22:19:23.094817  4104 net.cpp:124] Setting up relu4
I0523 22:19:23.094929  4104 net.cpp:131] Top shape: 50 384 13 13 (3244800)
I0523 22:19:23.094975  4104 net.cpp:139] Memory required for data: 318943200
I0523 22:19:23.095021  4104 layer_factory.hpp:77] Creating layer conv5
I0523 22:19:23.095085  4104 net.cpp:86] Creating Layer conv5
I0523 22:19:23.095144  4104 net.cpp:408] conv5 <- conv4
I0523 22:19:23.095197  4104 net.cpp:382] conv5 -> conv5
I0523 22:19:23.105181  4104 net.cpp:124] Setting up conv5
I0523 22:19:23.105290  4104 net.cpp:131] Top shape: 50 256 13 13 (2163200)
I0523 22:19:23.105334  4104 net.cpp:139] Memory required for data: 327596000
I0523 22:19:23.105391  4104 layer_factory.hpp:77] Creating layer relu5
I0523 22:19:23.105445  4104 net.cpp:86] Creating Layer relu5
I0523 22:19:23.105494  4104 net.cpp:408] relu5 <- conv5
I0523 22:19:23.105543  4104 net.cpp:369] relu5 -> conv5 (in-place)
I0523 22:19:23.106153  4104 net.cpp:124] Setting up relu5
I0523 22:19:23.106261  4104 net.cpp:131] Top shape: 50 256 13 13 (2163200)
I0523 22:19:23.106307  4104 net.cpp:139] Memory required for data: 336248800
I0523 22:19:23.106353  4104 layer_factory.hpp:77] Creating layer pool5
I0523 22:19:23.106421  4104 net.cpp:86] Creating Layer pool5
I0523 22:19:23.106467  4104 net.cpp:408] pool5 <- conv5
I0523 22:19:23.106528  4104 net.cpp:382] pool5 -> pool5
I0523 22:19:23.106645  4104 net.cpp:124] Setting up pool5
I0523 22:19:23.106700  4104 net.cpp:131] Top shape: 50 256 6 6 (460800)
I0523 22:19:23.106763  4104 net.cpp:139] Memory required for data: 338092000
I0523 22:19:23.106806  4104 layer_factory.hpp:77] Creating layer fc6
I0523 22:19:23.106863  4104 net.cpp:86] Creating Layer fc6
I0523 22:19:23.106909  4104 net.cpp:408] fc6 <- pool5
I0523 22:19:23.106954  4104 net.cpp:382] fc6 -> fc6
I0523 22:19:23.527946  4104 net.cpp:124] Setting up fc6
I0523 22:19:23.528170  4104 net.cpp:131] Top shape: 50 4096 (204800)
I0523 22:19:23.528250  4104 net.cpp:139] Memory required for data: 338911200
I0523 22:19:23.528308  4104 layer_factory.hpp:77] Creating layer relu6
I0523 22:19:23.528411  4104 net.cpp:86] Creating Layer relu6
I0523 22:19:23.528467  4104 net.cpp:408] relu6 <- fc6
I0523 22:19:23.528524  4104 net.cpp:369] relu6 -> fc6 (in-place)
I0523 22:19:23.529116  4104 net.cpp:124] Setting up relu6
I0523 22:19:23.529237  4104 net.cpp:131] Top shape: 50 4096 (204800)
I0523 22:19:23.529292  4104 net.cpp:139] Memory required for data: 339730400
I0523 22:19:23.529338  4104 layer_factory.hpp:77] Creating layer drop6
I0523 22:19:23.529389  4104 net.cpp:86] Creating Layer drop6
I0523 22:19:23.529445  4104 net.cpp:408] drop6 <- fc6
I0523 22:19:23.529512  4104 net.cpp:369] drop6 -> fc6 (in-place)
I0523 22:19:23.529623  4104 net.cpp:124] Setting up drop6
I0523 22:19:23.529678  4104 net.cpp:131] Top shape: 50 4096 (204800)
I0523 22:19:23.529726  4104 net.cpp:139] Memory required for data: 340549600
I0523 22:19:23.529791  4104 layer_factory.hpp:77] Creating layer fc7
I0523 22:19:23.529851  4104 net.cpp:86] Creating Layer fc7
I0523 22:19:23.529902  4104 net.cpp:408] fc7 <- fc6
I0523 22:19:23.529964  4104 net.cpp:382] fc7 -> fc7
I0523 22:19:23.717774  4104 net.cpp:124] Setting up fc7
I0523 22:19:23.718020  4104 net.cpp:131] Top shape: 50 4096 (204800)
I0523 22:19:23.718072  4104 net.cpp:139] Memory required for data: 341368800
I0523 22:19:23.718132  4104 layer_factory.hpp:77] Creating layer relu7
I0523 22:19:23.718219  4104 net.cpp:86] Creating Layer relu7
I0523 22:19:23.718286  4104 net.cpp:408] relu7 <- fc7
I0523 22:19:23.718353  4104 net.cpp:369] relu7 -> fc7 (in-place)
I0523 22:19:23.719249  4104 net.cpp:124] Setting up relu7
I0523 22:19:23.719378  4104 net.cpp:131] Top shape: 50 4096 (204800)
I0523 22:19:23.719436  4104 net.cpp:139] Memory required for data: 342188000
I0523 22:19:23.719485  4104 layer_factory.hpp:77] Creating layer drop7
I0523 22:19:23.719571  4104 net.cpp:86] Creating Layer drop7
I0523 22:19:23.719640  4104 net.cpp:408] drop7 <- fc7
I0523 22:19:23.719707  4104 net.cpp:369] drop7 -> fc7 (in-place)
I0523 22:19:23.719810  4104 net.cpp:124] Setting up drop7
I0523 22:19:23.719867  4104 net.cpp:131] Top shape: 50 4096 (204800)
I0523 22:19:23.719913  4104 net.cpp:139] Memory required for data: 343007200
I0523 22:19:23.719966  4104 layer_factory.hpp:77] Creating layer fc8_DL_PROJECT
I0523 22:19:23.720029  4104 net.cpp:86] Creating Layer fc8_DL_PROJECT
I0523 22:19:23.720077  4104 net.cpp:408] fc8_DL_PROJECT <- fc7
I0523 22:19:23.720144  4104 net.cpp:382] fc8_DL_PROJECT -> fc8_DL_PROJECT
I0523 22:19:23.720567  4104 net.cpp:124] Setting up fc8_DL_PROJECT
I0523 22:19:23.720664  4104 net.cpp:131] Top shape: 50 5 (250)
I0523 22:19:23.720711  4104 net.cpp:139] Memory required for data: 343008200
I0523 22:19:23.720765  4104 layer_factory.hpp:77] Creating layer loss_DL_PROJECT
I0523 22:19:23.720829  4104 net.cpp:86] Creating Layer loss_DL_PROJECT
I0523 22:19:23.720885  4104 net.cpp:408] loss_DL_PROJECT <- fc8_DL_PROJECT
I0523 22:19:23.720932  4104 net.cpp:408] loss_DL_PROJECT <- label
I0523 22:19:23.720993  4104 net.cpp:382] loss_DL_PROJECT -> loss_DL_PROJECT
…
I0523 22:19:24.435374  4104 net.cpp:296] The NetState phase (1) differed from the phase (0) specified by a rule in layer data
I0523 22:19:24.435767  4104 net.cpp:53] Initializing net from parameters: 
name: "CaffeNet"
state {
  phase: TEST
}
layer {
  name: "data"
  type: "Data"
  top: "data"
  top: "label"
  include {
    phase: TEST
  }
  transform_param {
    mirror: false
    crop_size: 227
    mean_file: "/home/pussycat/finetune_caffe_model/data/dataset_info/imagenet_mean.binaryproto"
  }
  data_param {
    source: "/home/pussycat/finetune_caffe_model/data/mdb_files/val_lmdb"
    batch_size: 50
    backend: LMDB
  }
}
layer {
  name: "conv1"
  type: "Convolution"
  bottom: "data"
  top: "conv1"
  param {
    lr_mult: 1
    decay_mult: 1
  }
  param {
    lr_mult: 2
    decay_mult: 0
  }
  convolution_param {
    num_output: 96
    kernel_size: 11
    stride: 4
    weight_filler {
      type: "gaussian"
      std: 0.01
    }
    bias_filler {
      type: "constant"
      value: 0
    }
  }
}
layer {
  name: "relu1"
  type: "ReLU"
  bottom: "conv1"
  top: "conv1"
}
layer {
  name: "pool1"
  type: "Pooling"
  bottom: "conv1"
  top: "pool1"
  pooling_param {
    pool: MAX
    kernel_size: 3
    stride: 2
  }
}
layer {
  name: "norm1"
  type: "LRN"
  bottom: "pool1"
  top: "norm1"
  lrn_param {
    local_size: 5
    alpha: 0.0001
    beta: 0.75
  }
}
layer {
  name: "conv2"
  type: "Convolution"
  bottom: "norm1"
  top: "conv2"
  param {
    lr_mult: 1
    decay_mult: 1
  }
  param {
    lr_mult: 2
    decay_mult: 0
  }
  convolution_param {
    num_output: 256
    pad: 2
    kernel_size: 5
    group: 2
    weight_filler {
      type: "gaussian"
      std: 0.01
    }
    bias_filler {
      type: "constant"
      value: 1
    }
  }
}
layer {
  name: "relu2"
  type: "ReLU"
  bottom: "conv2"
  top: "conv2"
}
layer {
  name: "pool2"
  type: "Pooling"
  bottom: "conv2"
  top: "pool2"
  pooling_param {
    pool: MAX
    kernel_size: 3
    stride: 2
  }
}
layer {
  name: "norm2"
  type: "LRN"
  bottom: "pool2"
  top: "norm2"
  lrn_param {
    local_size: 5
    alpha: 0.0001
    beta: 0.75
  }
}
layer {
  name: "conv3"
  type: "Convolution"
  bottom: "norm2"
  top: "conv3"
  param {
    lr_mult: 1
    decay_mult: 1
  }
  param {
    lr_mult: 2
    decay_mult: 0
  }
  convolution_param {
    num_output: 384
    pad: 1
    kernel_size: 3
    weight_filler {
      type: "gaussian"
      std: 0.01
    }
    bias_filler {
      type: "constant"
      value: 0
    }
  }
}
layer {
  name: "relu3"
  type: "ReLU"
  bottom: "conv3"
  top: "conv3"
}
layer {
  name: "conv4"
  type: "Convolution"
  bottom: "conv3"
  top: "conv4"
  param {
    lr_mult: 1
    decay_mult: 1
  }
  param {
    lr_mult: 2
    decay_mult: 0
  }
  convolution_param {
    num_output: 384
    pad: 1
    kernel_size: 3
    group: 2
    weight_filler {
      type: "gaussian"
      std: 0.01
    }
    bias_filler {
      type: "constant"
      value: 1
    }
  }
}
layer {
  name: "relu4"
  type: "ReLU"
  bottom: "conv4"
  top: "conv4"
}
layer {
  name: "conv5"
  type: "Convolution"
  bottom: "conv4"
  top: "conv5"
  param {
    lr_mult: 1
    decay_mult: 1
  }
  param {
    lr_mult: 2
    decay_mult: 0
  }
  convolution_param {
    num_output: 256
    pad: 1
    kernel_size: 3
    group: 2
    weight_filler {
      type: "gaussian"
      std: 0.01
    }
    bias_filler {
      type: "constant"
      value: 1
    }
  }
}
layer {
  name: "relu5"
  type: "ReLU"
  bottom: "conv5"
  top: "conv5"
}
layer {
  name: "pool5"
  type: "Pooling"
  bottom: "conv5"
  top: "pool5"
  pooling_param {
    pool: MAX
    kernel_size: 3
    stride: 2
  }
}
layer {
  name: "fc6"
  type: "InnerProduct"
  bottom: "pool5"
  top: "fc6"
  param {
    lr_mult: 1
    decay_mult: 1
  }
  param {
    lr_mult: 2
    decay_mult: 0
  }
  inner_product_param {
    num_output: 4096
    weight_filler {
      type: "gaussian"
      std: 0.005
    }
    bias_filler {
      type: "constant"
      value: 1
    }
  }
}
layer {
  name: "relu6"
  type: "ReLU"
  bottom: "fc6"
  top: "fc6"
}
layer {
  name: "drop6"
  type: "Dropout"
  bottom: "fc6"
  top: "fc6"
  dropout_param {
    dropout_ratio: 0.5
  }
}
layer {
  name: "fc7"
  type: "InnerProduct"
  bottom: "fc6"
  top: "fc7"
  param {
    lr_mult: 1
    decay_mult: 1
  }
  param {
    lr_mult: 2
    decay_mult: 0
  }
  inner_product_param {
    num_output: 4096
    weight_filler {
      type: "gaussian"
      std: 0.005
    }
    bias_filler {
      type: "constant"
      value: 1
    }
  }
}
layer {
  name: "relu7"
  type: "ReLU"
  bottom: "fc7"
  top: "fc7"
}
layer {
  name: "drop7"
  type: "Dropout"
  bottom: "fc7"
  top: "fc7"
  dropout_param {
    dropout_ratio: 0.5
  }
}
layer {
  name: "fc8_DL_PROJECT"
  type: "InnerProduct"
  bottom: "fc7"
  top: "fc8_DL_PROJECT"
  param {
    lr_mult: 1
    decay_mult: 1
  }
  param {
    lr_mult: 2
    decay_mult: 0
  }
  inner_product_param {
    num_output: 5
    weight_filler {
      type: "gaussian"
      std: 0.01
    }
    bias_filler {
      type: "constant"
      value: 0
    }
  }
}
layer {
  name: "accuracy_DL_PROJECT"
  type: "Accuracy"
  bottom: "fc8_DL_PROJECT"
  bottom: "label"
  top: "accuracy_DL_PROJECT"
  include {
    phase: TEST
  }
}
layer {
  name: "loss_DL_PROJECT"
  type: "SoftmaxWithLoss"
  bottom: "fc8_DL_PROJECT"
  bottom: "label"
  top: "loss_DL_PROJECT"
}
I0523 22:19:24.437988  4104 layer_factory.hpp:77] Creating layer data
I0523 22:19:24.438138  4104 db_lmdb.cpp:35] Opened lmdb /home/pussycat/finetune_caffe_model/data/mdb_files/val_lmdb
I0523 22:19:24.438212  4104 net.cpp:86] Creating Layer data
I0523 22:19:24.438263  4104 net.cpp:382] data -> data
I0523 22:19:24.438316  4104 net.cpp:382] data -> label
I0523 22:19:24.438376  4104 data_transformer.cpp:25] Loading mean file from: /home/pussycat/finetune_caffe_model/data/dataset_info/imagenet_mean.binaryproto
I0523 22:19:24.440030  4104 data_layer.cpp:45] output data size: 50,3,227,227
I0523 22:19:24.514106  4104 net.cpp:124] Setting up data
I0523 22:19:24.514314  4104 net.cpp:131] Top shape: 50 3 227 227 (7729350)
I0523 22:19:24.514364  4104 net.cpp:131] Top shape: 50 (50)
I0523 22:19:24.514415  4104 net.cpp:139] Memory required for data: 30917600
I0523 22:19:24.514466  4104 layer_factory.hpp:77] Creating layer label_data_1_split
I0523 22:19:24.514525  4104 net.cpp:86] Creating Layer label_data_1_split
I0523 22:19:24.514611  4104 net.cpp:408] label_data_1_split <- label
I0523 22:19:24.514669  4104 net.cpp:382] label_data_1_split -> label_data_1_split_0
I0523 22:19:24.514722  4104 net.cpp:382] label_data_1_split -> label_data_1_split_1
I0523 22:19:24.514856  4104 net.cpp:124] Setting up label_data_1_split
I0523 22:19:24.514914  4104 net.cpp:131] Top shape: 50 (50)
I0523 22:19:24.514963  4104 net.cpp:131] Top shape: 50 (50)
I0523 22:19:24.515007  4104 net.cpp:139] Memory required for data: 30918000
I0523 22:19:24.515050  4104 layer_factory.hpp:77] Creating layer conv1
I0523 22:19:24.515120  4104 net.cpp:86] Creating Layer conv1
I0523 22:19:24.515166  4104 net.cpp:408] conv1 <- data
I0523 22:19:24.515218  4104 net.cpp:382] conv1 -> conv1
I0523 22:19:24.517195  4104 net.cpp:124] Setting up conv1
I0523 22:19:24.517323  4104 net.cpp:131] Top shape: 50 96 55 55 (14520000)
I0523 22:19:24.517381  4104 net.cpp:139] Memory required for data: 88998000
I0523 22:19:24.517438  4104 layer_factory.hpp:77] Creating layer relu1
I0523 22:19:24.517508  4104 net.cpp:86] Creating Layer relu1
I0523 22:19:24.517585  4104 net.cpp:408] relu1 <- conv1
I0523 22:19:24.517640  4104 net.cpp:369] relu1 -> conv1 (in-place)
I0523 22:19:24.518146  4104 net.cpp:124] Setting up relu1
I0523 22:19:24.518257  4104 net.cpp:131] Top shape: 50 96 55 55 (14520000)
I0523 22:19:24.518302  4104 net.cpp:139] Memory required for data: 147078000
I0523 22:19:24.518344  4104 layer_factory.hpp:77] Creating layer pool1
I0523 22:19:24.518405  4104 net.cpp:86] Creating Layer pool1
I0523 22:19:24.518450  4104 net.cpp:408] pool1 <- conv1
I0523 22:19:24.518501  4104 net.cpp:382] pool1 -> pool1
I0523 22:19:24.521881  4104 net.cpp:124] Setting up pool1
I0523 22:19:24.521900  4104 net.cpp:131] Top shape: 50 96 27 27 (3499200)
I0523 22:19:24.521904  4104 net.cpp:139] Memory required for data: 161074800
I0523 22:19:24.521908  4104 layer_factory.hpp:77] Creating layer norm1
I0523 22:19:24.521919  4104 net.cpp:86] Creating Layer norm1
I0523 22:19:24.521922  4104 net.cpp:408] norm1 <- pool1
I0523 22:19:24.521929  4104 net.cpp:382] norm1 -> norm1
I0523 22:19:24.522403  4104 net.cpp:124] Setting up norm1
I0523 22:19:24.522418  4104 net.cpp:131] Top shape: 50 96 27 27 (3499200)
I0523 22:19:24.522421  4104 net.cpp:139] Memory required for data: 175071600
I0523 22:19:24.522425  4104 layer_factory.hpp:77] Creating layer conv2
I0523 22:19:24.522439  4104 net.cpp:86] Creating Layer conv2
I0523 22:19:24.522444  4104 net.cpp:408] conv2 <- norm1
I0523 22:19:24.522450  4104 net.cpp:382] conv2 -> conv2
I0523 22:19:24.534669  4104 net.cpp:124] Setting up conv2
I0523 22:19:24.540385  4104 net.cpp:131] Top shape: 50 256 27 27 (9331200)
I0523 22:19:24.540520  4104 net.cpp:139] Memory required for data: 212396400
I0523 22:19:24.540617  4104 layer_factory.hpp:77] Creating layer relu2
I0523 22:19:24.540704  4104 net.cpp:86] Creating Layer relu2
I0523 22:19:24.540792  4104 net.cpp:408] relu2 <- conv2
I0523 22:19:24.540875  4104 net.cpp:369] relu2 -> conv2 (in-place)
I0523 22:19:24.541411  4104 net.cpp:124] Setting up relu2
I0523 22:19:24.541522  4104 net.cpp:131] Top shape: 50 256 27 27 (9331200)
I0523 22:19:24.541597  4104 net.cpp:139] Memory required for data: 249721200
I0523 22:19:24.541642  4104 layer_factory.hpp:77] Creating layer pool2
I0523 22:19:24.541695  4104 net.cpp:86] Creating Layer pool2
I0523 22:19:24.541757  4104 net.cpp:408] pool2 <- conv2
I0523 22:19:24.541802  4104 net.cpp:382] pool2 -> pool2
I0523 22:19:24.541913  4104 net.cpp:124] Setting up pool2
I0523 22:19:24.541967  4104 net.cpp:131] Top shape: 50 256 13 13 (2163200)
I0523 22:19:24.542014  4104 net.cpp:139] Memory required for data: 258374000
I0523 22:19:24.542055  4104 layer_factory.hpp:77] Creating layer norm2
I0523 22:19:24.542100  4104 net.cpp:86] Creating Layer norm2
I0523 22:19:24.542148  4104 net.cpp:408] norm2 <- pool2
I0523 22:19:24.542197  4104 net.cpp:382] norm2 -> norm2
I0523 22:19:24.542552  4104 net.cpp:124] Setting up norm2
I0523 22:19:24.542659  4104 net.cpp:131] Top shape: 50 256 13 13 (2163200)
I0523 22:19:24.542701  4104 net.cpp:139] Memory required for data: 267026800
I0523 22:19:24.542749  4104 layer_factory.hpp:77] Creating layer conv3
I0523 22:19:24.542800  4104 net.cpp:86] Creating Layer conv3
I0523 22:19:24.542851  4104 net.cpp:408] conv3 <- norm2
I0523 22:19:24.542902  4104 net.cpp:382] conv3 -> conv3
I0523 22:19:24.564775  4104 net.cpp:124] Setting up conv3
I0523 22:19:24.568397  4104 net.cpp:131] Top shape: 50 384 13 13 (3244800)
I0523 22:19:24.568504  4104 net.cpp:139] Memory required for data: 280006000
I0523 22:19:24.568572  4104 layer_factory.hpp:77] Creating layer relu3
I0523 22:19:24.568626  4104 net.cpp:86] Creating Layer relu3
I0523 22:19:24.568675  4104 net.cpp:408] relu3 <- conv3
I0523 22:19:24.568723  4104 net.cpp:369] relu3 -> conv3 (in-place)
I0523 22:19:24.569327  4104 net.cpp:124] Setting up relu3
I0523 22:19:24.569429  4104 net.cpp:131] Top shape: 50 384 13 13 (3244800)
I0523 22:19:24.569485  4104 net.cpp:139] Memory required for data: 292985200
I0523 22:19:24.569530  4104 layer_factory.hpp:77] Creating layer conv4
I0523 22:19:24.569623  4104 net.cpp:86] Creating Layer conv4
I0523 22:19:24.569675  4104 net.cpp:408] conv4 <- conv3
I0523 22:19:24.569725  4104 net.cpp:382] conv4 -> conv4
I0523 22:19:24.587538  4104 net.cpp:124] Setting up conv4
I0523 22:19:24.587658  4104 net.cpp:131] Top shape: 50 384 13 13 (3244800)
I0523 22:19:24.587709  4104 net.cpp:139] Memory required for data: 305964400
I0523 22:19:24.587769  4104 layer_factory.hpp:77] Creating layer relu4
I0523 22:19:24.587819  4104 net.cpp:86] Creating Layer relu4
I0523 22:19:24.587864  4104 net.cpp:408] relu4 <- conv4
I0523 22:19:24.587911  4104 net.cpp:369] relu4 -> conv4 (in-place)
I0523 22:19:24.588423  4104 net.cpp:124] Setting up relu4
I0523 22:19:24.588516  4104 net.cpp:131] Top shape: 50 384 13 13 (3244800)
I0523 22:19:24.588567  4104 net.cpp:139] Memory required for data: 318943600
I0523 22:19:24.588610  4104 layer_factory.hpp:77] Creating layer conv5
I0523 22:19:24.588661  4104 net.cpp:86] Creating Layer conv5
I0523 22:19:24.588703  4104 net.cpp:408] conv5 <- conv4
I0523 22:19:24.588769  4104 net.cpp:382] conv5 -> conv5
I0523 22:19:24.605715  4104 net.cpp:124] Setting up conv5
I0523 22:19:24.608381  4104 net.cpp:131] Top shape: 50 256 13 13 (2163200)
I0523 22:19:24.608474  4104 net.cpp:139] Memory required for data: 327596400
I0523 22:19:24.608530  4104 layer_factory.hpp:77] Creating layer relu5
I0523 22:19:24.608590  4104 net.cpp:86] Creating Layer relu5
I0523 22:19:24.608638  4104 net.cpp:408] relu5 <- conv5
I0523 22:19:24.608695  4104 net.cpp:369] relu5 -> conv5 (in-place)
I0523 22:19:24.609194  4104 net.cpp:124] Setting up relu5
I0523 22:19:24.609295  4104 net.cpp:131] Top shape: 50 256 13 13 (2163200)
I0523 22:19:24.609341  4104 net.cpp:139] Memory required for data: 336249200
I0523 22:19:24.609385  4104 layer_factory.hpp:77] Creating layer pool5
I0523 22:19:24.609437  4104 net.cpp:86] Creating Layer pool5
I0523 22:19:24.609481  4104 net.cpp:408] pool5 <- conv5
I0523 22:19:24.609570  4104 net.cpp:382] pool5 -> pool5
I0523 22:19:24.609678  4104 net.cpp:124] Setting up pool5
I0523 22:19:24.609755  4104 net.cpp:131] Top shape: 50 256 6 6 (460800)
I0523 22:19:24.609797  4104 net.cpp:139] Memory required for data: 338092400
I0523 22:19:24.609838  4104 layer_factory.hpp:77] Creating layer fc6
I0523 22:19:24.609889  4104 net.cpp:86] Creating Layer fc6
I0523 22:19:24.609937  4104 net.cpp:408] fc6 <- pool5
I0523 22:19:24.609982  4104 net.cpp:382] fc6 -> fc6
I0523 22:19:25.060266  4104 net.cpp:124] Setting up fc6
I0523 22:19:25.060545  4104 net.cpp:131] Top shape: 50 4096 (204800)
I0523 22:19:25.060611  4104 net.cpp:139] Memory required for data: 338911600
I0523 22:19:25.060667  4104 layer_factory.hpp:77] Creating layer relu6
I0523 22:19:25.060755  4104 net.cpp:86] Creating Layer relu6
I0523 22:19:25.060803  4104 net.cpp:408] relu6 <- fc6
I0523 22:19:25.060859  4104 net.cpp:369] relu6 -> fc6 (in-place)
I0523 22:19:25.061655  4104 net.cpp:124] Setting up relu6
I0523 22:19:25.061779  4104 net.cpp:131] Top shape: 50 4096 (204800)
I0523 22:19:25.061830  4104 net.cpp:139] Memory required for data: 339730800
I0523 22:19:25.061880  4104 layer_factory.hpp:77] Creating layer drop6
I0523 22:19:25.061950  4104 net.cpp:86] Creating Layer drop6
I0523 22:19:25.062053  4104 net.cpp:408] drop6 <- fc6
I0523 22:19:25.062114  4104 net.cpp:369] drop6 -> fc6 (in-place)
I0523 22:19:25.062222  4104 net.cpp:124] Setting up drop6
I0523 22:19:25.062284  4104 net.cpp:131] Top shape: 50 4096 (204800)
I0523 22:19:25.062337  4104 net.cpp:139] Memory required for data: 340550000
I0523 22:19:25.062384  4104 layer_factory.hpp:77] Creating layer fc7
I0523 22:19:25.062443  4104 net.cpp:86] Creating Layer fc7
I0523 22:19:25.062496  4104 net.cpp:408] fc7 <- fc6
I0523 22:19:25.062564  4104 net.cpp:382] fc7 -> fc7
I0523 22:19:25.250255  4104 net.cpp:124] Setting up fc7
I0523 22:19:25.250499  4104 net.cpp:131] Top shape: 50 4096 (204800)
I0523 22:19:25.250579  4104 net.cpp:139] Memory required for data: 341369200
I0523 22:19:25.250669  4104 layer_factory.hpp:77] Creating layer relu7
I0523 22:19:25.250735  4104 net.cpp:86] Creating Layer relu7
I0523 22:19:25.250800  4104 net.cpp:408] relu7 <- fc7
I0523 22:19:25.250856  4104 net.cpp:369] relu7 -> fc7 (in-place)
I0523 22:19:25.251356  4104 net.cpp:124] Setting up relu7
I0523 22:19:25.251471  4104 net.cpp:131] Top shape: 50 4096 (204800)
I0523 22:19:25.251516  4104 net.cpp:139] Memory required for data: 342188400
I0523 22:19:25.251579  4104 layer_factory.hpp:77] Creating layer drop7
I0523 22:19:25.251631  4104 net.cpp:86] Creating Layer drop7
I0523 22:19:25.251682  4104 net.cpp:408] drop7 <- fc7
I0523 22:19:25.251737  4104 net.cpp:369] drop7 -> fc7 (in-place)
I0523 22:19:25.251834  4104 net.cpp:124] Setting up drop7
I0523 22:19:25.251883  4104 net.cpp:131] Top shape: 50 4096 (204800)
I0523 22:19:25.251933  4104 net.cpp:139] Memory required for data: 343007600
I0523 22:19:25.251982  4104 layer_factory.hpp:77] Creating layer fc8_DL_PROJECT
I0523 22:19:25.252037  4104 net.cpp:86] Creating Layer fc8_DL_PROJECT
I0523 22:19:25.252081  4104 net.cpp:408] fc8_DL_PROJECT <- fc7
I0523 22:19:25.252133  4104 net.cpp:382] fc8_DL_PROJECT -> fc8_DL_PROJECT
I0523 22:19:25.252517  4104 net.cpp:124] Setting up fc8_DL_PROJECT
I0523 22:19:25.252611  4104 net.cpp:131] Top shape: 50 5 (250)
I0523 22:19:25.252656  4104 net.cpp:139] Memory required for data: 343008600
I0523 22:19:25.252705  4104 layer_factory.hpp:77] Creating layer fc8_DL_PROJECT_fc8_DL_PROJECT_0_split
I0523 22:19:25.252755  4104 net.cpp:86] Creating Layer fc8_DL_PROJECT_fc8_DL_PROJECT_0_split
I0523 22:19:25.252801  4104 net.cpp:408] fc8_DL_PROJECT_fc8_DL_PROJECT_0_split <- fc8_DL_PROJECT
I0523 22:19:25.252856  4104 net.cpp:382] fc8_DL_PROJECT_fc8_DL_PROJECT_0_split -> fc8_DL_PROJECT_fc8_DL_PROJECT_0_split_0
I0523 22:19:25.252912  4104 net.cpp:382] fc8_DL_PROJECT_fc8_DL_PROJECT_0_split -> fc8_DL_PROJECT_fc8_DL_PROJECT_0_split_1
I0523 22:19:25.253010  4104 net.cpp:124] Setting up fc8_DL_PROJECT_fc8_DL_PROJECT_0_split
I0523 22:19:25.253063  4104 net.cpp:131] Top shape: 50 5 (250)
I0523 22:19:25.253114  4104 net.cpp:131] Top shape: 50 5 (250)
I0523 22:19:25.253163  4104 net.cpp:139] Memory required for data: 343010600
I0523 22:19:25.253222  4104 layer_factory.hpp:77] Creating layer accuracy_DL_PROJECT
I0523 22:19:25.253300  4104 net.cpp:86] Creating Layer accuracy_DL_PROJECT
I0523 22:19:25.253348  4104 net.cpp:408] accuracy_DL_PROJECT <- fc8_DL_PROJECT_fc8_DL_PROJECT_0_split_0
I0523 22:19:25.253404  4104 net.cpp:408] accuracy_DL_PROJECT <- label_data_1_split_0
…
