…
I0529 09:01:44.488708  3932 net.cpp:296] The NetState phase (0) differed from the phase (1) specified by a rule in layer accuracy_DL_PROJECT
I0529 09:01:44.489703  3932 net.cpp:53] Initializing net from parameters: 
name: "CaffeNet"
state {
  phase: TRAIN
  level: 0
  stage: ""
}
layer {
  name: "data"
  type: "Data"
  top: "data"
  top: "label"
  include {
    phase: TRAIN
  }
  transform_param {
    mirror: true
    crop_size: 227
    mean_file: "/home/pussycat/finetune_caffe_model/data/dataset_info/imagenet_mean.binaryproto"
  }
  data_param {
    source: "/home/pussycat/finetune_caffe_model/data/mdb_files/train_lmdb"
    batch_size: 50
    backend: LMDB
  }
}
layer {
  name: "conv1"
  type: "Convolution"
  bottom: "data"
  top: "conv1"
  param {
    lr_mult: 1
    decay_mult: 1
  }
  param {
    lr_mult: 2
    decay_mult: 0
  }
  convolution_param {
    num_output: 96
    kernel_size: 11
    stride: 4
    weight_filler {
      type: "gaussian"
      std: 0.01
    }
    bias_filler {
      type: "constant"
      value: 0
    }
  }
}
layer {
  name: "relu1"
  type: "ReLU"
  bottom: "conv1"
  top: "conv1"
}
layer {
  name: "pool1"
  type: "Pooling"
  bottom: "conv1"
  top: "pool1"
  pooling_param {
    pool: MAX
    kernel_size: 3
    stride: 2
  }
}
layer {
  name: "norm1"
  type: "LRN"
  bottom: "pool1"
  top: "norm1"
  lrn_param {
    local_size: 5
    alpha: 0.0001
    beta: 0.75
  }
}
layer {
  name: "conv2"
  type: "Convolution"
  bottom: "norm1"
  top: "conv2"
  param {
    lr_mult: 1
    decay_mult: 1
  }
  param {
    lr_mult: 2
    decay_mult: 0
  }
  convolution_param {
    num_output: 256
    pad: 2
    kernel_size: 5
    group: 2
    weight_filler {
      type: "gaussian"
      std: 0.01
    }
    bias_filler {
      type: "constant"
      value: 1
    }
  }
}
layer {
  name: "relu2"
  type: "ReLU"
  bottom: "conv2"
  top: "conv2"
}
layer {
  name: "pool2"
  type: "Pooling"
  bottom: "conv2"
  top: "pool2"
  pooling_param {
    pool: MAX
    kernel_size: 3
    stride: 2
  }
}
layer {
  name: "norm2"
  type: "LRN"
  bottom: "pool2"
  top: "norm2"
  lrn_param {
    local_size: 5
    alpha: 0.0001
    beta: 0.75
  }
}
layer {
  name: "conv3"
  type: "Convolution"
  bottom: "norm2"
  top: "conv3"
  param {
    lr_mult: 1
    decay_mult: 1
  }
  param {
    lr_mult: 2
    decay_mult: 0
  }
  convolution_param {
    num_output: 384
    pad: 1
    kernel_size: 3
    weight_filler {
      type: "gaussian"
      std: 0.01
    }
    bias_filler {
      type: "constant"
      value: 0
    }
  }
}
layer {
  name: "relu3"
  type: "ReLU"
  bottom: "conv3"
  top: "conv3"
}
layer {
  name: "conv4"
  type: "Convolution"
  bottom: "conv3"
  top: "conv4"
  param {
    lr_mult: 1
    decay_mult: 1
  }
  param {
    lr_mult: 2
    decay_mult: 0
  }
  convolution_param {
    num_output: 384
    pad: 1
    kernel_size: 3
    group: 2
    weight_filler {
      type: "gaussian"
      std: 0.01
    }
    bias_filler {
      type: "constant"
      value: 1
    }
  }
}
layer {
  name: "relu4"
  type: "ReLU"
  bottom: "conv4"
  top: "conv4"
}
layer {
  name: "conv5"
  type: "Convolution"
  bottom: "conv4"
  top: "conv5"
  param {
    lr_mult: 1
    decay_mult: 1
  }
  param {
    lr_mult: 2
    decay_mult: 0
  }
  convolution_param {
    num_output: 256
    pad: 1
    kernel_size: 3
    group: 2
    weight_filler {
      type: "gaussian"
      std: 0.01
    }
    bias_filler {
      type: "constant"
      value: 1
    }
  }
}
layer {
  name: "relu5"
  type: "ReLU"
  bottom: "conv5"
  top: "conv5"
}
layer {
  name: "pool5"
  type: "Pooling"
  bottom: "conv5"
  top: "pool5"
  pooling_param {
    pool: MAX
    kernel_size: 3
    stride: 2
  }
}
layer {
  name: "fc6"
  type: "InnerProduct"
  bottom: "pool5"
  top: "fc6"
  param {
    lr_mult: 1
    decay_mult: 1
  }
  param {
    lr_mult: 2
    decay_mult: 0
  }
  inner_product_param {
    num_output: 4096
    weight_filler {
      type: "gaussian"
      std: 0.005
    }
    bias_filler {
      type: "constant"
      value: 1
    }
  }
}
layer {
  name: "relu6"
  type: "ReLU"
  bottom: "fc6"
  top: "fc6"
}
layer {
  name: "drop6"
  type: "Dropout"
  bottom: "fc6"
  top: "fc6"
  dropout_param {
    dropout_ratio: 0.5
  }
}
layer {
  name: "fc7"
  type: "InnerProduct"
  bottom: "fc6"
  top: "fc7"
  param {
    lr_mult: 1
    decay_mult: 1
  }
  param {
    lr_mult: 2
    decay_mult: 0
  }
  inner_product_param {
    num_output: 4096
    weight_filler {
      type: "gaussian"
      std: 0.005
    }
    bias_filler {
      type: "constant"
      value: 1
    }
  }
}
layer {
  name: "relu7"
  type: "ReLU"
  bottom: "fc7"
  top: "fc7"
}
layer {
  name: "drop7"
  type: "Dropout"
  bottom: "fc7"
  top: "fc7"
  dropout_param {
    dropout_ratio: 0.5
  }
}
layer {
  name: "fc8_DL_PROJECT"
  type: "InnerProduct"
  bottom: "fc7"
  top: "fc8_DL_PROJECT"
  param {
    lr_mult: 1
    decay_mult: 1
  }
  param {
    lr_mult: 2
    decay_mult: 0
  }
  inner_product_param {
    num_output: 5
    weight_filler {
      type: "gaussian"
      std: 0.01
    }
    bias_filler {
      type: "constant"
      value: 0
    }
  }
}
layer {
  name: "loss_DL_PROJECT"
  type: "SoftmaxWithLoss"
  bottom: "fc8_DL_PROJECT"
  bottom: "label"
  top: "loss_DL_PROJECT"
}
I0529 09:01:44.491688  3932 layer_factory.hpp:77] Creating layer data
I0529 09:01:44.526118  3932 db_lmdb.cpp:35] Opened lmdb /home/pussycat/finetune_caffe_model/data/mdb_files/train_lmdb
I0529 09:01:44.526259  3932 net.cpp:86] Creating Layer data
I0529 09:01:44.526320  3932 net.cpp:382] data -> data
I0529 09:01:44.526399  3932 net.cpp:382] data -> label
I0529 09:01:44.526456  3932 data_transformer.cpp:25] Loading mean file from: /home/pussycat/finetune_caffe_model/data/dataset_info/imagenet_mean.binaryproto
I0529 09:01:44.623246  3932 data_layer.cpp:45] output data size: 50,3,227,227
I0529 09:01:44.726197  3932 net.cpp:124] Setting up data
I0529 09:01:44.726438  3932 net.cpp:131] Top shape: 50 3 227 227 (7729350)
I0529 09:01:44.726505  3932 net.cpp:131] Top shape: 50 (50)
I0529 09:01:44.726548  3932 net.cpp:139] Memory required for data: 30917600
I0529 09:01:44.726671  3932 layer_factory.hpp:77] Creating layer conv1
I0529 09:01:44.726745  3932 net.cpp:86] Creating Layer conv1
I0529 09:01:44.726799  3932 net.cpp:408] conv1 <- data
I0529 09:01:44.726864  3932 net.cpp:382] conv1 -> conv1
I0529 09:01:45.819412  3932 net.cpp:124] Setting up conv1
I0529 09:01:45.819638  3932 net.cpp:131] Top shape: 50 96 55 55 (14520000)
I0529 09:01:45.819685  3932 net.cpp:139] Memory required for data: 88997600
I0529 09:01:45.819767  3932 layer_factory.hpp:77] Creating layer relu1
I0529 09:01:45.819825  3932 net.cpp:86] Creating Layer relu1
I0529 09:01:45.819919  3932 net.cpp:408] relu1 <- conv1
I0529 09:01:45.819977  3932 net.cpp:369] relu1 -> conv1 (in-place)
I0529 09:01:45.820576  3932 net.cpp:124] Setting up relu1
I0529 09:01:45.820694  3932 net.cpp:131] Top shape: 50 96 55 55 (14520000)
I0529 09:01:45.820739  3932 net.cpp:139] Memory required for data: 147077600
I0529 09:01:45.820792  3932 layer_factory.hpp:77] Creating layer pool1
I0529 09:01:45.820859  3932 net.cpp:86] Creating Layer pool1
I0529 09:01:45.820902  3932 net.cpp:408] pool1 <- conv1
I0529 09:01:45.820955  3932 net.cpp:382] pool1 -> pool1
I0529 09:01:45.821094  3932 net.cpp:124] Setting up pool1
I0529 09:01:45.821149  3932 net.cpp:131] Top shape: 50 96 27 27 (3499200)
I0529 09:01:45.821197  3932 net.cpp:139] Memory required for data: 161074400
I0529 09:01:45.821240  3932 layer_factory.hpp:77] Creating layer norm1
I0529 09:01:45.821300  3932 net.cpp:86] Creating Layer norm1
I0529 09:01:45.821353  3932 net.cpp:408] norm1 <- pool1
I0529 09:01:45.821404  3932 net.cpp:382] norm1 -> norm1
I0529 09:01:45.821979  3932 net.cpp:124] Setting up norm1
I0529 09:01:45.822074  3932 net.cpp:131] Top shape: 50 96 27 27 (3499200)
I0529 09:01:45.822118  3932 net.cpp:139] Memory required for data: 175071200
I0529 09:01:45.822160  3932 layer_factory.hpp:77] Creating layer conv2
I0529 09:01:45.822217  3932 net.cpp:86] Creating Layer conv2
I0529 09:01:45.822270  3932 net.cpp:408] conv2 <- norm1
I0529 09:01:45.822336  3932 net.cpp:382] conv2 -> conv2
I0529 09:01:45.829952  3932 net.cpp:124] Setting up conv2
I0529 09:01:45.830054  3932 net.cpp:131] Top shape: 50 256 27 27 (9331200)
I0529 09:01:45.830096  3932 net.cpp:139] Memory required for data: 212396000
I0529 09:01:45.830165  3932 layer_factory.hpp:77] Creating layer relu2
I0529 09:01:45.830215  3932 net.cpp:86] Creating Layer relu2
I0529 09:01:45.830258  3932 net.cpp:408] relu2 <- conv2
I0529 09:01:45.830327  3932 net.cpp:369] relu2 -> conv2 (in-place)
I0529 09:01:45.830898  3932 net.cpp:124] Setting up relu2
I0529 09:01:45.831023  3932 net.cpp:131] Top shape: 50 256 27 27 (9331200)
I0529 09:01:45.831090  3932 net.cpp:139] Memory required for data: 249720800
I0529 09:01:45.831167  3932 layer_factory.hpp:77] Creating layer pool2
I0529 09:01:45.831244  3932 net.cpp:86] Creating Layer pool2
I0529 09:01:45.831341  3932 net.cpp:408] pool2 <- conv2
I0529 09:01:45.831432  3932 net.cpp:382] pool2 -> pool2
I0529 09:01:45.831545  3932 net.cpp:124] Setting up pool2
I0529 09:01:45.831599  3932 net.cpp:131] Top shape: 50 256 13 13 (2163200)
I0529 09:01:45.831657  3932 net.cpp:139] Memory required for data: 258373600
I0529 09:01:45.831707  3932 layer_factory.hpp:77] Creating layer norm2
I0529 09:01:45.831763  3932 net.cpp:86] Creating Layer norm2
I0529 09:01:45.831807  3932 net.cpp:408] norm2 <- pool2
I0529 09:01:45.831897  3932 net.cpp:382] norm2 -> norm2
I0529 09:01:45.832309  3932 net.cpp:124] Setting up norm2
I0529 09:01:45.832406  3932 net.cpp:131] Top shape: 50 256 13 13 (2163200)
I0529 09:01:45.832448  3932 net.cpp:139] Memory required for data: 267026400
I0529 09:01:45.832501  3932 layer_factory.hpp:77] Creating layer conv3
I0529 09:01:45.832561  3932 net.cpp:86] Creating Layer conv3
I0529 09:01:45.832604  3932 net.cpp:408] conv3 <- norm2
I0529 09:01:45.832661  3932 net.cpp:382] conv3 -> conv3
I0529 09:01:45.842900  3932 net.cpp:124] Setting up conv3
I0529 09:01:45.843000  3932 net.cpp:131] Top shape: 50 384 13 13 (3244800)
I0529 09:01:45.843045  3932 net.cpp:139] Memory required for data: 280005600
I0529 09:01:45.843098  3932 layer_factory.hpp:77] Creating layer relu3
I0529 09:01:45.843148  3932 net.cpp:86] Creating Layer relu3
I0529 09:01:45.843191  3932 net.cpp:408] relu3 <- conv3
I0529 09:01:45.843238  3932 net.cpp:369] relu3 -> conv3 (in-place)
I0529 09:01:45.843647  3932 net.cpp:124] Setting up relu3
I0529 09:01:45.843737  3932 net.cpp:131] Top shape: 50 384 13 13 (3244800)
I0529 09:01:45.843780  3932 net.cpp:139] Memory required for data: 292984800
I0529 09:01:45.843825  3932 layer_factory.hpp:77] Creating layer conv4
I0529 09:01:45.843915  3932 net.cpp:86] Creating Layer conv4
I0529 09:01:45.843966  3932 net.cpp:408] conv4 <- conv3
I0529 09:01:45.844022  3932 net.cpp:382] conv4 -> conv4
I0529 09:01:45.854686  3932 net.cpp:124] Setting up conv4
I0529 09:01:45.854796  3932 net.cpp:131] Top shape: 50 384 13 13 (3244800)
I0529 09:01:45.854843  3932 net.cpp:139] Memory required for data: 305964000
I0529 09:01:45.854900  3932 layer_factory.hpp:77] Creating layer relu4
I0529 09:01:45.854948  3932 net.cpp:86] Creating Layer relu4
I0529 09:01:45.854990  3932 net.cpp:408] relu4 <- conv4
I0529 09:01:45.855063  3932 net.cpp:369] relu4 -> conv4 (in-place)
I0529 09:01:45.855636  3932 net.cpp:124] Setting up relu4
I0529 09:01:45.855734  3932 net.cpp:131] Top shape: 50 384 13 13 (3244800)
I0529 09:01:45.855780  3932 net.cpp:139] Memory required for data: 318943200
I0529 09:01:45.855828  3932 layer_factory.hpp:77] Creating layer conv5
I0529 09:01:45.855931  3932 net.cpp:86] Creating Layer conv5
I0529 09:01:45.855983  3932 net.cpp:408] conv5 <- conv4
I0529 09:01:45.856031  3932 net.cpp:382] conv5 -> conv5
I0529 09:01:45.864636  3932 net.cpp:124] Setting up conv5
I0529 09:01:45.864737  3932 net.cpp:131] Top shape: 50 256 13 13 (2163200)
I0529 09:01:45.864780  3932 net.cpp:139] Memory required for data: 327596000
I0529 09:01:45.864836  3932 layer_factory.hpp:77] Creating layer relu5
I0529 09:01:45.864886  3932 net.cpp:86] Creating Layer relu5
I0529 09:01:45.864929  3932 net.cpp:408] relu5 <- conv5
I0529 09:01:45.864984  3932 net.cpp:369] relu5 -> conv5 (in-place)
I0529 09:01:45.865514  3932 net.cpp:124] Setting up relu5
I0529 09:01:45.865612  3932 net.cpp:131] Top shape: 50 256 13 13 (2163200)
I0529 09:01:45.865654  3932 net.cpp:139] Memory required for data: 336248800
I0529 09:01:45.865698  3932 layer_factory.hpp:77] Creating layer pool5
I0529 09:01:45.865751  3932 net.cpp:86] Creating Layer pool5
I0529 09:01:45.865794  3932 net.cpp:408] pool5 <- conv5
I0529 09:01:45.865851  3932 net.cpp:382] pool5 -> pool5
I0529 09:01:45.865953  3932 net.cpp:124] Setting up pool5
I0529 09:01:45.866008  3932 net.cpp:131] Top shape: 50 256 6 6 (460800)
I0529 09:01:45.866050  3932 net.cpp:139] Memory required for data: 338092000
I0529 09:01:45.866097  3932 layer_factory.hpp:77] Creating layer fc6
I0529 09:01:45.866155  3932 net.cpp:86] Creating Layer fc6
I0529 09:01:45.866200  3932 net.cpp:408] fc6 <- pool5
I0529 09:01:45.866255  3932 net.cpp:382] fc6 -> fc6
I0529 09:01:46.251706  3932 net.cpp:124] Setting up fc6
I0529 09:01:46.251905  3932 net.cpp:131] Top shape: 50 4096 (204800)
I0529 09:01:46.251955  3932 net.cpp:139] Memory required for data: 338911200
I0529 09:01:46.252009  3932 layer_factory.hpp:77] Creating layer relu6
I0529 09:01:46.252081  3932 net.cpp:86] Creating Layer relu6
I0529 09:01:46.252130  3932 net.cpp:408] relu6 <- fc6
I0529 09:01:46.252182  3932 net.cpp:369] relu6 -> fc6 (in-place)
I0529 09:01:46.252710  3932 net.cpp:124] Setting up relu6
I0529 09:01:46.252816  3932 net.cpp:131] Top shape: 50 4096 (204800)
I0529 09:01:46.252861  3932 net.cpp:139] Memory required for data: 339730400
I0529 09:01:46.252904  3932 layer_factory.hpp:77] Creating layer drop6
I0529 09:01:46.252961  3932 net.cpp:86] Creating Layer drop6
I0529 09:01:46.253015  3932 net.cpp:408] drop6 <- fc6
I0529 09:01:46.253067  3932 net.cpp:369] drop6 -> fc6 (in-place)
I0529 09:01:46.253171  3932 net.cpp:124] Setting up drop6
I0529 09:01:46.253231  3932 net.cpp:131] Top shape: 50 4096 (204800)
I0529 09:01:46.253273  3932 net.cpp:139] Memory required for data: 340549600
I0529 09:01:46.253330  3932 layer_factory.hpp:77] Creating layer fc7
I0529 09:01:46.253377  3932 net.cpp:86] Creating Layer fc7
I0529 09:01:46.253425  3932 net.cpp:408] fc7 <- fc6
I0529 09:01:46.253490  3932 net.cpp:382] fc7 -> fc7
I0529 09:01:46.425701  3932 net.cpp:124] Setting up fc7
I0529 09:01:46.425902  3932 net.cpp:131] Top shape: 50 4096 (204800)
I0529 09:01:46.425953  3932 net.cpp:139] Memory required for data: 341368800
I0529 09:01:46.426007  3932 layer_factory.hpp:77] Creating layer relu7
I0529 09:01:46.426081  3932 net.cpp:86] Creating Layer relu7
I0529 09:01:46.426132  3932 net.cpp:408] relu7 <- fc7
I0529 09:01:46.426182  3932 net.cpp:369] relu7 -> fc7 (in-place)
I0529 09:01:46.426908  3932 net.cpp:124] Setting up relu7
I0529 09:01:46.427023  3932 net.cpp:131] Top shape: 50 4096 (204800)
I0529 09:01:46.427067  3932 net.cpp:139] Memory required for data: 342188000
I0529 09:01:46.427110  3932 layer_factory.hpp:77] Creating layer drop7
I0529 09:01:46.427181  3932 net.cpp:86] Creating Layer drop7
I0529 09:01:46.427230  3932 net.cpp:408] drop7 <- fc7
I0529 09:01:46.427289  3932 net.cpp:369] drop7 -> fc7 (in-place)
I0529 09:01:46.427398  3932 net.cpp:124] Setting up drop7
I0529 09:01:46.427450  3932 net.cpp:131] Top shape: 50 4096 (204800)
I0529 09:01:46.427505  3932 net.cpp:139] Memory required for data: 343007200
I0529 09:01:46.427554  3932 layer_factory.hpp:77] Creating layer fc8_DL_PROJECT
I0529 09:01:46.427608  3932 net.cpp:86] Creating Layer fc8_DL_PROJECT
I0529 09:01:46.427649  3932 net.cpp:408] fc8_DL_PROJECT <- fc7
I0529 09:01:46.427704  3932 net.cpp:382] fc8_DL_PROJECT -> fc8_DL_PROJECT
I0529 09:01:46.428082  3932 net.cpp:124] Setting up fc8_DL_PROJECT
I0529 09:01:46.428164  3932 net.cpp:131] Top shape: 50 5 (250)
I0529 09:01:46.428207  3932 net.cpp:139] Memory required for data: 343008200
I0529 09:01:46.428252  3932 layer_factory.hpp:77] Creating layer loss_DL_PROJECT
I0529 09:01:46.428305  3932 net.cpp:86] Creating Layer loss_DL_PROJECT
I0529 09:01:46.428359  3932 net.cpp:408] loss_DL_PROJECT <- fc8_DL_PROJECT
I0529 09:01:46.428407  3932 net.cpp:408] loss_DL_PROJECT <- label
I0529 09:01:46.428462  3932 net.cpp:382] loss_DL_PROJECT -> loss_DL_PROJECT
…
I0529 09:01:46.431341  3932 net.cpp:296] The NetState phase (1) differed from the phase (0) specified by a rule in layer data
I0529 09:01:46.431572  3932 net.cpp:53] Initializing net from parameters: 
name: "CaffeNet"
state {
  phase: TEST
}
layer {
  name: "data"
  type: "Data"
  top: "data"
  top: "label"
  include {
    phase: TEST
  }
  transform_param {
    mirror: false
    crop_size: 227
    mean_file: "/home/pussycat/finetune_caffe_model/data/dataset_info/imagenet_mean.binaryproto"
  }
  data_param {
    source: "/home/pussycat/finetune_caffe_model/data/mdb_files/val_lmdb"
    batch_size: 50
    backend: LMDB
  }
}
layer {
  name: "conv1"
  type: "Convolution"
  bottom: "data"
  top: "conv1"
  param {
    lr_mult: 1
    decay_mult: 1
  }
  param {
    lr_mult: 2
    decay_mult: 0
  }
  convolution_param {
    num_output: 96
    kernel_size: 11
    stride: 4
    weight_filler {
      type: "gaussian"
      std: 0.01
    }
    bias_filler {
      type: "constant"
      value: 0
    }
  }
}
layer {
  name: "relu1"
  type: "ReLU"
  bottom: "conv1"
  top: "conv1"
}
layer {
  name: "pool1"
  type: "Pooling"
  bottom: "conv1"
  top: "pool1"
  pooling_param {
    pool: MAX
    kernel_size: 3
    stride: 2
  }
}
layer {
  name: "norm1"
  type: "LRN"
  bottom: "pool1"
  top: "norm1"
  lrn_param {
    local_size: 5
    alpha: 0.0001
    beta: 0.75
  }
}
layer {
  name: "conv2"
  type: "Convolution"
  bottom: "norm1"
  top: "conv2"
  param {
    lr_mult: 1
    decay_mult: 1
  }
  param {
    lr_mult: 2
    decay_mult: 0
  }
  convolution_param {
    num_output: 256
    pad: 2
    kernel_size: 5
    group: 2
    weight_filler {
      type: "gaussian"
      std: 0.01
    }
    bias_filler {
      type: "constant"
      value: 1
    }
  }
}
layer {
  name: "relu2"
  type: "ReLU"
  bottom: "conv2"
  top: "conv2"
}
layer {
  name: "pool2"
  type: "Pooling"
  bottom: "conv2"
  top: "pool2"
  pooling_param {
    pool: MAX
    kernel_size: 3
    stride: 2
  }
}
layer {
  name: "norm2"
  type: "LRN"
  bottom: "pool2"
  top: "norm2"
  lrn_param {
    local_size: 5
    alpha: 0.0001
    beta: 0.75
  }
}
layer {
  name: "conv3"
  type: "Convolution"
  bottom: "norm2"
  top: "conv3"
  param {
    lr_mult: 1
    decay_mult: 1
  }
  param {
    lr_mult: 2
    decay_mult: 0
  }
  convolution_param {
    num_output: 384
    pad: 1
    kernel_size: 3
    weight_filler {
      type: "gaussian"
      std: 0.01
    }
    bias_filler {
      type: "constant"
      value: 0
    }
  }
}
layer {
  name: "relu3"
  type: "ReLU"
  bottom: "conv3"
  top: "conv3"
}
layer {
  name: "conv4"
  type: "Convolution"
  bottom: "conv3"
  top: "conv4"
  param {
    lr_mult: 1
    decay_mult: 1
  }
  param {
    lr_mult: 2
    decay_mult: 0
  }
  convolution_param {
    num_output: 384
    pad: 1
    kernel_size: 3
    group: 2
    weight_filler {
      type: "gaussian"
      std: 0.01
    }
    bias_filler {
      type: "constant"
      value: 1
    }
  }
}
layer {
  name: "relu4"
  type: "ReLU"
  bottom: "conv4"
  top: "conv4"
}
layer {
  name: "conv5"
  type: "Convolution"
  bottom: "conv4"
  top: "conv5"
  param {
    lr_mult: 1
    decay_mult: 1
  }
  param {
    lr_mult: 2
    decay_mult: 0
  }
  convolution_param {
    num_output: 256
    pad: 1
    kernel_size: 3
    group: 2
    weight_filler {
      type: "gaussian"
      std: 0.01
    }
    bias_filler {
      type: "constant"
      value: 1
    }
  }
}
layer {
  name: "relu5"
  type: "ReLU"
  bottom: "conv5"
  top: "conv5"
}
layer {
  name: "pool5"
  type: "Pooling"
  bottom: "conv5"
  top: "pool5"
  pooling_param {
    pool: MAX
    kernel_size: 3
    stride: 2
  }
}
layer {
  name: "fc6"
  type: "InnerProduct"
  bottom: "pool5"
  top: "fc6"
  param {
    lr_mult: 1
    decay_mult: 1
  }
  param {
    lr_mult: 2
    decay_mult: 0
  }
  inner_product_param {
    num_output: 4096
    weight_filler {
      type: "gaussian"
      std: 0.005
    }
    bias_filler {
      type: "constant"
      value: 1
    }
  }
}
layer {
  name: "relu6"
  type: "ReLU"
  bottom: "fc6"
  top: "fc6"
}
layer {
  name: "drop6"
  type: "Dropout"
  bottom: "fc6"
  top: "fc6"
  dropout_param {
    dropout_ratio: 0.5
  }
}
layer {
  name: "fc7"
  type: "InnerProduct"
  bottom: "fc6"
  top: "fc7"
  param {
    lr_mult: 1
    decay_mult: 1
  }
  param {
    lr_mult: 2
    decay_mult: 0
  }
  inner_product_param {
    num_output: 4096
    weight_filler {
      type: "gaussian"
      std: 0.005
    }
    bias_filler {
      type: "constant"
      value: 1
    }
  }
}
layer {
  name: "relu7"
  type: "ReLU"
  bottom: "fc7"
  top: "fc7"
}
layer {
  name: "drop7"
  type: "Dropout"
  bottom: "fc7"
  top: "fc7"
  dropout_param {
    dropout_ratio: 0.5
  }
}
layer {
  name: "fc8_DL_PROJECT"
  type: "InnerProduct"
  bottom: "fc7"
  top: "fc8_DL_PROJECT"
  param {
    lr_mult: 1
    decay_mult: 1
  }
  param {
    lr_mult: 2
    decay_mult: 0
  }
  inner_product_param {
    num_output: 5
    weight_filler {
      type: "gaussian"
      std: 0.01
    }
    bias_filler {
      type: "constant"
      value: 0
    }
  }
}
layer {
  name: "accuracy_DL_PROJECT"
  type: "Accuracy"
  bottom: "fc8_DL_PROJECT"
  bottom: "label"
  top: "accuracy_DL_PROJECT"
  include {
    phase: TEST
  }
}
layer {
  name: "loss_DL_PROJECT"
  type: "SoftmaxWithLoss"
  bottom: "fc8_DL_PROJECT"
  bottom: "label"
  top: "loss_DL_PROJECT"
}
I0529 09:01:46.433615  3932 layer_factory.hpp:77] Creating layer data
I0529 09:01:46.494756  3932 db_lmdb.cpp:35] Opened lmdb /home/pussycat/finetune_caffe_model/data/mdb_files/val_lmdb
I0529 09:01:46.533164  3932 net.cpp:86] Creating Layer data
I0529 09:01:46.533252  3932 net.cpp:382] data -> data
I0529 09:01:46.533314  3932 net.cpp:382] data -> label
I0529 09:01:46.533368  3932 data_transformer.cpp:25] Loading mean file from: /home/pussycat/finetune_caffe_model/data/dataset_info/imagenet_mean.binaryproto
I0529 09:01:46.536388  3932 data_layer.cpp:45] output data size: 50,3,227,227
I0529 09:01:46.601593  3932 net.cpp:124] Setting up data
I0529 09:01:46.601778  3932 net.cpp:131] Top shape: 50 3 227 227 (7729350)
I0529 09:01:46.601831  3932 net.cpp:131] Top shape: 50 (50)
I0529 09:01:46.601881  3932 net.cpp:139] Memory required for data: 30917600
I0529 09:01:46.601928  3932 layer_factory.hpp:77] Creating layer label_data_1_split
I0529 09:01:46.602003  3932 net.cpp:86] Creating Layer label_data_1_split
I0529 09:01:46.602056  3932 net.cpp:408] label_data_1_split <- label
I0529 09:01:46.602108  3932 net.cpp:382] label_data_1_split -> label_data_1_split_0
I0529 09:01:46.602164  3932 net.cpp:382] label_data_1_split -> label_data_1_split_1
I0529 09:01:46.602267  3932 net.cpp:124] Setting up label_data_1_split
I0529 09:01:46.602322  3932 net.cpp:131] Top shape: 50 (50)
I0529 09:01:46.602372  3932 net.cpp:131] Top shape: 50 (50)
I0529 09:01:46.602419  3932 net.cpp:139] Memory required for data: 30918000
I0529 09:01:46.602461  3932 layer_factory.hpp:77] Creating layer conv1
I0529 09:01:46.602535  3932 net.cpp:86] Creating Layer conv1
I0529 09:01:46.602583  3932 net.cpp:408] conv1 <- data
I0529 09:01:46.602635  3932 net.cpp:382] conv1 -> conv1
I0529 09:01:46.604379  3932 net.cpp:124] Setting up conv1
I0529 09:01:46.604521  3932 net.cpp:131] Top shape: 50 96 55 55 (14520000)
I0529 09:01:46.604566  3932 net.cpp:139] Memory required for data: 88998000
I0529 09:01:46.604632  3932 layer_factory.hpp:77] Creating layer relu1
I0529 09:01:46.604681  3932 net.cpp:86] Creating Layer relu1
I0529 09:01:46.604730  3932 net.cpp:408] relu1 <- conv1
I0529 09:01:46.604776  3932 net.cpp:369] relu1 -> conv1 (in-place)
I0529 09:01:46.605264  3932 net.cpp:124] Setting up relu1
I0529 09:01:46.605365  3932 net.cpp:131] Top shape: 50 96 55 55 (14520000)
I0529 09:01:46.605409  3932 net.cpp:139] Memory required for data: 147078000
I0529 09:01:46.605453  3932 layer_factory.hpp:77] Creating layer pool1
I0529 09:01:46.605515  3932 net.cpp:86] Creating Layer pool1
I0529 09:01:46.605574  3932 net.cpp:408] pool1 <- conv1
I0529 09:01:46.605620  3932 net.cpp:382] pool1 -> pool1
I0529 09:01:46.605724  3932 net.cpp:124] Setting up pool1
I0529 09:01:46.605777  3932 net.cpp:131] Top shape: 50 96 27 27 (3499200)
I0529 09:01:46.605837  3932 net.cpp:139] Memory required for data: 161074800
I0529 09:01:46.605881  3932 layer_factory.hpp:77] Creating layer norm1
I0529 09:01:46.605927  3932 net.cpp:86] Creating Layer norm1
I0529 09:01:46.605975  3932 net.cpp:408] norm1 <- pool1
I0529 09:01:46.606020  3932 net.cpp:382] norm1 -> norm1
I0529 09:01:46.606545  3932 net.cpp:124] Setting up norm1
I0529 09:01:46.607879  3932 net.cpp:131] Top shape: 50 96 27 27 (3499200)
I0529 09:01:46.607970  3932 net.cpp:139] Memory required for data: 175071600
I0529 09:01:46.608031  3932 layer_factory.hpp:77] Creating layer conv2
I0529 09:01:46.608083  3932 net.cpp:86] Creating Layer conv2
I0529 09:01:46.608126  3932 net.cpp:408] conv2 <- norm1
I0529 09:01:46.608183  3932 net.cpp:382] conv2 -> conv2
I0529 09:01:46.618428  3932 net.cpp:124] Setting up conv2
I0529 09:01:46.618546  3932 net.cpp:131] Top shape: 50 256 27 27 (9331200)
I0529 09:01:46.618592  3932 net.cpp:139] Memory required for data: 212396400
I0529 09:01:46.618641  3932 layer_factory.hpp:77] Creating layer relu2
I0529 09:01:46.618701  3932 net.cpp:86] Creating Layer relu2
I0529 09:01:46.618746  3932 net.cpp:408] relu2 <- conv2
I0529 09:01:46.618795  3932 net.cpp:369] relu2 -> conv2 (in-place)
I0529 09:01:46.619364  3932 net.cpp:124] Setting up relu2
I0529 09:01:46.619493  3932 net.cpp:131] Top shape: 50 256 27 27 (9331200)
I0529 09:01:46.619541  3932 net.cpp:139] Memory required for data: 249721200
I0529 09:01:46.619586  3932 layer_factory.hpp:77] Creating layer pool2
I0529 09:01:46.619640  3932 net.cpp:86] Creating Layer pool2
I0529 09:01:46.619686  3932 net.cpp:408] pool2 <- conv2
I0529 09:01:46.619752  3932 net.cpp:382] pool2 -> pool2
I0529 09:01:46.619890  3932 net.cpp:124] Setting up pool2
I0529 09:01:46.619952  3932 net.cpp:131] Top shape: 50 256 13 13 (2163200)
I0529 09:01:46.620004  3932 net.cpp:139] Memory required for data: 258374000
I0529 09:01:46.620049  3932 layer_factory.hpp:77] Creating layer norm2
I0529 09:01:46.620100  3932 net.cpp:86] Creating Layer norm2
I0529 09:01:46.620151  3932 net.cpp:408] norm2 <- pool2
I0529 09:01:46.620209  3932 net.cpp:382] norm2 -> norm2
I0529 09:01:46.620647  3932 net.cpp:124] Setting up norm2
I0529 09:01:46.620756  3932 net.cpp:131] Top shape: 50 256 13 13 (2163200)
I0529 09:01:46.620800  3932 net.cpp:139] Memory required for data: 267026800
I0529 09:01:46.620851  3932 layer_factory.hpp:77] Creating layer conv3
I0529 09:01:46.620904  3932 net.cpp:86] Creating Layer conv3
I0529 09:01:46.620947  3932 net.cpp:408] conv3 <- norm2
I0529 09:01:46.620992  3932 net.cpp:382] conv3 -> conv3
I0529 09:01:46.632787  3932 net.cpp:124] Setting up conv3
I0529 09:01:46.632900  3932 net.cpp:131] Top shape: 50 384 13 13 (3244800)
I0529 09:01:46.632948  3932 net.cpp:139] Memory required for data: 280006000
I0529 09:01:46.632998  3932 layer_factory.hpp:77] Creating layer relu3
I0529 09:01:46.633047  3932 net.cpp:86] Creating Layer relu3
I0529 09:01:46.633106  3932 net.cpp:408] relu3 <- conv3
I0529 09:01:46.633152  3932 net.cpp:369] relu3 -> conv3 (in-place)
I0529 09:01:46.633687  3932 net.cpp:124] Setting up relu3
I0529 09:01:46.633778  3932 net.cpp:131] Top shape: 50 384 13 13 (3244800)
I0529 09:01:46.633829  3932 net.cpp:139] Memory required for data: 292985200
I0529 09:01:46.633872  3932 layer_factory.hpp:77] Creating layer conv4
I0529 09:01:46.633932  3932 net.cpp:86] Creating Layer conv4
I0529 09:01:46.633981  3932 net.cpp:408] conv4 <- conv3
I0529 09:01:46.634037  3932 net.cpp:382] conv4 -> conv4
I0529 09:01:46.644729  3932 net.cpp:124] Setting up conv4
I0529 09:01:46.644840  3932 net.cpp:131] Top shape: 50 384 13 13 (3244800)
I0529 09:01:46.644891  3932 net.cpp:139] Memory required for data: 305964400
I0529 09:01:46.644937  3932 layer_factory.hpp:77] Creating layer relu4
I0529 09:01:46.644986  3932 net.cpp:86] Creating Layer relu4
I0529 09:01:46.645040  3932 net.cpp:408] relu4 <- conv4
I0529 09:01:46.645089  3932 net.cpp:369] relu4 -> conv4 (in-place)
I0529 09:01:46.645628  3932 net.cpp:124] Setting up relu4
I0529 09:01:46.645720  3932 net.cpp:131] Top shape: 50 384 13 13 (3244800)
I0529 09:01:46.645763  3932 net.cpp:139] Memory required for data: 318943600
I0529 09:01:46.645805  3932 layer_factory.hpp:77] Creating layer conv5
I0529 09:01:46.645874  3932 net.cpp:86] Creating Layer conv5
I0529 09:01:46.645917  3932 net.cpp:408] conv5 <- conv4
I0529 09:01:46.645984  3932 net.cpp:382] conv5 -> conv5
I0529 09:01:46.655308  3932 net.cpp:124] Setting up conv5
I0529 09:01:46.655411  3932 net.cpp:131] Top shape: 50 256 13 13 (2163200)
I0529 09:01:46.655455  3932 net.cpp:139] Memory required for data: 327596400
I0529 09:01:46.655529  3932 layer_factory.hpp:77] Creating layer relu5
I0529 09:01:46.655581  3932 net.cpp:86] Creating Layer relu5
I0529 09:01:46.655637  3932 net.cpp:408] relu5 <- conv5
I0529 09:01:46.655689  3932 net.cpp:369] relu5 -> conv5 (in-place)
I0529 09:01:46.656224  3932 net.cpp:124] Setting up relu5
I0529 09:01:46.656317  3932 net.cpp:131] Top shape: 50 256 13 13 (2163200)
I0529 09:01:46.656360  3932 net.cpp:139] Memory required for data: 336249200
I0529 09:01:46.656404  3932 layer_factory.hpp:77] Creating layer pool5
I0529 09:01:46.656455  3932 net.cpp:86] Creating Layer pool5
I0529 09:01:46.656519  3932 net.cpp:408] pool5 <- conv5
I0529 09:01:46.656575  3932 net.cpp:382] pool5 -> pool5
I0529 09:01:46.656672  3932 net.cpp:124] Setting up pool5
I0529 09:01:46.656730  3932 net.cpp:131] Top shape: 50 256 6 6 (460800)
I0529 09:01:46.656772  3932 net.cpp:139] Memory required for data: 338092400
I0529 09:01:46.656828  3932 layer_factory.hpp:77] Creating layer fc6
I0529 09:01:46.656885  3932 net.cpp:86] Creating Layer fc6
I0529 09:01:46.656963  3932 net.cpp:408] fc6 <- pool5
I0529 09:01:46.657019  3932 net.cpp:382] fc6 -> fc6
I0529 09:01:47.120924  3932 net.cpp:124] Setting up fc6
I0529 09:01:47.121109  3932 net.cpp:131] Top shape: 50 4096 (204800)
I0529 09:01:47.121155  3932 net.cpp:139] Memory required for data: 338911600
I0529 09:01:47.121212  3932 layer_factory.hpp:77] Creating layer relu6
I0529 09:01:47.121261  3932 net.cpp:86] Creating Layer relu6
I0529 09:01:47.121335  3932 net.cpp:408] relu6 <- fc6
I0529 09:01:47.121395  3932 net.cpp:369] relu6 -> fc6 (in-place)
I0529 09:01:47.122135  3932 net.cpp:124] Setting up relu6
I0529 09:01:47.122241  3932 net.cpp:131] Top shape: 50 4096 (204800)
I0529 09:01:47.122284  3932 net.cpp:139] Memory required for data: 339730800
I0529 09:01:47.122340  3932 layer_factory.hpp:77] Creating layer drop6
I0529 09:01:47.122402  3932 net.cpp:86] Creating Layer drop6
I0529 09:01:47.122449  3932 net.cpp:408] drop6 <- fc6
I0529 09:01:47.122522  3932 net.cpp:369] drop6 -> fc6 (in-place)
I0529 09:01:47.122612  3932 net.cpp:124] Setting up drop6
I0529 09:01:47.122685  3932 net.cpp:131] Top shape: 50 4096 (204800)
I0529 09:01:47.122737  3932 net.cpp:139] Memory required for data: 340550000
I0529 09:01:47.122789  3932 layer_factory.hpp:77] Creating layer fc7
I0529 09:01:47.122848  3932 net.cpp:86] Creating Layer fc7
I0529 09:01:47.122893  3932 net.cpp:408] fc7 <- fc6
I0529 09:01:47.122957  3932 net.cpp:382] fc7 -> fc7
I0529 09:01:47.332753  3932 net.cpp:124] Setting up fc7
I0529 09:01:47.332944  3932 net.cpp:131] Top shape: 50 4096 (204800)
I0529 09:01:47.332991  3932 net.cpp:139] Memory required for data: 341369200
I0529 09:01:47.333043  3932 layer_factory.hpp:77] Creating layer relu7
I0529 09:01:47.333091  3932 net.cpp:86] Creating Layer relu7
I0529 09:01:47.333154  3932 net.cpp:408] relu7 <- fc7
I0529 09:01:47.333200  3932 net.cpp:369] relu7 -> fc7 (in-place)
I0529 09:01:47.333715  3932 net.cpp:124] Setting up relu7
I0529 09:01:47.333820  3932 net.cpp:131] Top shape: 50 4096 (204800)
I0529 09:01:47.333864  3932 net.cpp:139] Memory required for data: 342188400
I0529 09:01:47.333906  3932 layer_factory.hpp:77] Creating layer drop7
I0529 09:01:47.333966  3932 net.cpp:86] Creating Layer drop7
I0529 09:01:47.334010  3932 net.cpp:408] drop7 <- fc7
I0529 09:01:47.334054  3932 net.cpp:369] drop7 -> fc7 (in-place)
I0529 09:01:47.334141  3932 net.cpp:124] Setting up drop7
I0529 09:01:47.334195  3932 net.cpp:131] Top shape: 50 4096 (204800)
I0529 09:01:47.334236  3932 net.cpp:139] Memory required for data: 343007600
I0529 09:01:47.334295  3932 layer_factory.hpp:77] Creating layer fc8_DL_PROJECT
I0529 09:01:47.334343  3932 net.cpp:86] Creating Layer fc8_DL_PROJECT
I0529 09:01:47.334384  3932 net.cpp:408] fc8_DL_PROJECT <- fc7
I0529 09:01:47.334437  3932 net.cpp:382] fc8_DL_PROJECT -> fc8_DL_PROJECT
I0529 09:01:47.334820  3932 net.cpp:124] Setting up fc8_DL_PROJECT
I0529 09:01:47.334895  3932 net.cpp:131] Top shape: 50 5 (250)
I0529 09:01:47.334937  3932 net.cpp:139] Memory required for data: 343008600
I0529 09:01:47.334995  3932 layer_factory.hpp:77] Creating layer fc8_DL_PROJECT_fc8_DL_PROJECT_0_split
I0529 09:01:47.335041  3932 net.cpp:86] Creating Layer fc8_DL_PROJECT_fc8_DL_PROJECT_0_split
I0529 09:01:47.335091  3932 net.cpp:408] fc8_DL_PROJECT_fc8_DL_PROJECT_0_split <- fc8_DL_PROJECT
I0529 09:01:47.335147  3932 net.cpp:382] fc8_DL_PROJECT_fc8_DL_PROJECT_0_split -> fc8_DL_PROJECT_fc8_DL_PROJECT_0_split_0
I0529 09:01:47.335194  3932 net.cpp:382] fc8_DL_PROJECT_fc8_DL_PROJECT_0_split -> fc8_DL_PROJECT_fc8_DL_PROJECT_0_split_1
I0529 09:01:47.335294  3932 net.cpp:124] Setting up fc8_DL_PROJECT_fc8_DL_PROJECT_0_split
I0529 09:01:47.335355  3932 net.cpp:131] Top shape: 50 5 (250)
I0529 09:01:47.335398  3932 net.cpp:131] Top shape: 50 5 (250)
I0529 09:01:47.335445  3932 net.cpp:139] Memory required for data: 343010600
I0529 09:01:47.335500  3932 layer_factory.hpp:77] Creating layer accuracy_DL_PROJECT
I0529 09:01:47.335546  3932 net.cpp:86] Creating Layer accuracy_DL_PROJECT
I0529 09:01:47.335594  3932 net.cpp:408] accuracy_DL_PROJECT <- fc8_DL_PROJECT_fc8_DL_PROJECT_0_split_0
I0529 09:01:47.335644  3932 net.cpp:408] accuracy_DL_PROJECT <- label_data_1_split_0
…
